model_dir/best_model.pt (torch_old, 976798 bytes, 74 tensors)

fc1.weight f4 [128, 24]
0	0x3d8db4c1	0.06919242
1	0xbeb72cc3	-0.35776338
2	0x3bcbaefe	0.006215929
3	0xbc35bafc	-0.011091944
4	0x3dd0a882	0.1018839
5	0xbd493018	-0.04911813
6	0xbd11c2b1	-0.035586063
7	0x3b490706	0.0030674352
8	0x3de4172b	0.111372314
9	0xbea15949	-0.31513432
10	0x3cb04d02	0.021521095
11	0x3d04a61c	0.032384977
12	0xbdb7e3f1	-0.08979023
13	0xbd95a282	-0.073063865
14	0x3dce7b45	0.100821055
15	0x3cd7bd0c	0.026335262
16	0x3d87f22b	0.06637987
17	0xbe83e653	-0.2576166
18	0xbe12a8e2	-0.14322236
19	0xbd8bb6b4	-0.06821957
20	0xbe987f61	-0.29784682
21	0xbe47eb4b	-0.19523351
22	0xbdd4a09d	-0.10382197
23	0xbc1d20d7	-0.009590349
24	0x3d40b2a7	0.047045376
25	0xbce46f60	-0.027885139
26	0xbc5f1271	-0.013615237
27	0xbe3642af	-0.17798875
28	0x3e3dc6b2	0.18532827
29	0x3be75816	0.007060061
30	0x3c0e07b9	0.008668833
31	0xbdecaf93	-0.115569256
32	0xbda0c28f	-0.07849609
33	0xbdbea07f	-0.09307956
34	0xbccfeba7	-0.025380922
35	0xbdf79e66	-0.12090759
36	0xbe243c4e	-0.1603863
37	0x3ca3f4c8	0.020014182
38	0x3d584891	0.05280358
39	0xbda07839	-0.07835431
40	0xbb9ad218	-0.004724752
41	0xbe4d6fff	-0.20062254
42	0xbd1a7489	-0.037708793
43	0x3d8c68c7	0.06855922
44	0xbeae5313	-0.34047756
45	0x3e82e3ab	0.25564322
46	0x3dc82637	0.09772914
47	0x3d350e44	0.044203058
48	0xbdb663da	-0.08905764
49	0xbd7cee1b	-0.061750513
50	0x3d9bf57a	0.0761518
51	0xbe6ca34e	-0.23109171
52	0x3c967cc8	0.018370047
53	0xbe32d4ee	-0.17464039
54	0xbd7ef5c6	-0.062246107
55	0xbe64d4ea	-0.22346845
56	0xbd9e9fe5	-0.07745341
57	0xbd7b18f0	-0.06130308
58	0x3d80e4a1	0.062936075
59	0xbd298e20	-0.041395307
60	0x3d95ff7d	0.07324121
61	0x3a3ddd8f	0.00072427926
62	0x3c6054e6	0.013692116
63	0xbddfa1ad	-0.10919509
64	0xbda52051	-0.080628045
65	0xbe17404d	-0.14770623
66	0x3d1e6b0d	0.03867631
67	0xbdc77106	-0.097383544
68	0x3e95f3e5	0.2928764
69	0x3ed122fb	0.40847
70	0xbd14c69d	-0.036322225
71	0xbd772eeb	-0.06034748
72	0xbd36218d	-0.04446559
73	0xbebcbe41	-0.36863902
74	0x3c6b00b0	0.014343426
75	0xbd409fb5	-0.04702731
76	0x3e80b41d	0.25137416
77	0x3e5a0e24	0.21294457
78	0xbb58190d	-0.0032973916
79	0xbd81f178	-0.06344885
80	0x3d00139a	0.031268694
81	0xbecc7e3a	-0.39940053
82	0x3e2397a4	0.15975815
83	0xbe09fb09	-0.13474669
84	0x3ed4e229	0.41578797
85	0x3e364546	0.17799863
86	0x3bdf82eb	0.0068210266
87	0xbdcdb482	-0.10044195
88	0x3df49bbc	0.119437665
89	0xbe7cadfa	-0.24675742
90	0x3da98d92	0.082789555
91	0x3c10c4b3	0.008835959
92	0x3ef03c12	0.4692083
93	0xbda47f9b	-0.08032151
94	0x3d759fe7	0.059966948
95	0x3b4caea6	0.0031232028
96	0x3e12902b	0.14312808
97	0x3e01579c	0.12631077
98	0xbd0cf6dd	-0.034415115
99	0xbea271d6	-0.31727475
100	0xbdf75e9b	-0.120785914
101	0x3e8165c4	0.25272954
102	0xbc9e5c6b	-0.019331178
103	0xbeca11d6	-0.39466733
104	0x3e2ed890	0.170748
105	0x3de64e86	0.11245446
106	0x3cd723fa	0.026262272
107	0xbe6ffb00	-0.23435593
108	0x3e3397a1	0.1753831
109	0x3e1f7e5c	0.15575546
110	0x3da1ffd2	0.07910122
111	0xbe87bdd1	-0.26512006
112	0x3e28c653	0.16481905
113	0x3cfb095f	0.030644117
114	0xbcd4560c	-0.025919937
115	0xbecc814f	-0.39942405
116	0x3ed0e454	0.407992
117	0x3e594a27	0.21219693
118	0x3df69e1a	0.12041874
119	0xbe9e116b	-0.30872664
120	0x3d1106f9	0.03540704
121	0xbb840d88	-0.0040299334
122	0xbd57bc28	-0.052669674
123	0xbe4c5f13	-0.19958143
124	0x3cb65bf4	0.022260644
125	0xbeba2f74	-0.3636433
126	0x3cf5e04d	0.030014182
127	0xbe3ca3bd	-0.18421836
128	0x3dd77880	0.105210304
129	0x3c90650e	0.017626312
130	0xbd2dacaf	-0.042401012
131	0x3ca03119	0.019554662
132	0xbe1fc203	-0.15601353
133	0x3d495bd6	0.049159847
134	0xbd797f86	-0.06091263
135	0x3de7da4c	0.11320934
136	0xbd4b2176	-0.049592458
137	0x3c887648	0.016657963
138	0x3ca95d6c	0.02067443
139	0x3d944986	0.07240586
140	0xbdb7f7b2	-0.08982791
141	0x3f0ac059	0.5419975
142	0xbdbb44a7	-0.09143954
143	0x3df6e58a	0.120555
144	0x3d331e0d	0.04372983
145	0xbd5f4bbd	-0.05451559
146	0x3d6e551f	0.058186647
147	0xbe489026	-0.19586238
148	0x3deff3e8	0.11716443
149	0x3e8cb63c	0.27482784
150	0xbce1b31e	-0.02755123
151	0xbdf0a667	-0.11750489
152	0x3d138766	0.036017798
153	0xbe1a6ee9	-0.15081371
154	0x3b986a30	0.0046513304
155	0xbe2dab3e	-0.16959855
156	0x3e8b5942	0.27216536
157	0x3e0d5194	0.13800651
158	0xbd048b2a	-0.03235928
159	0xbdbb9cb3	-0.091607474
160	0xbda2a1f3	-0.079410456
161	0xbe135017	-0.1438602
162	0xbdc837a4	-0.097762376
163	0x3dab48db	0.083635055
164	0x3d99d70c	0.0751172
165	0xbe18ca01	-0.14920808
166	0xbd9d2204	-0.076725036
167	0x3d70a0e3	0.058747184
168	0x3aea6208	0.0017881999
169	0x3c8b1d8e	0.016981866
170	0x3deb5ab9	0.11491913
171	0xbd22f653	-0.039785694
172	0x3ddc9431	0.10770453
173	0x3eaf418f	0.34229705
174	0xbc812b2b	-0.015767654
175	0x3da675e2	0.08127953
176	0x3c41fa00	0.01183939
177	0x3dea4ef2	0.11440839
178	0xbd388b49	-0.045054708
179	0x3e0d03a0	0.13770914
180	0x3e6bda22	0.2303243
181	0x3e672c54	0.22575504
182	0xbc42e346	-0.0118950065
183	0x3ce74913	0.028233087
184	0x3db90fc4	0.0903621
185	0x3da07bc9	0.0783611
186	0x3e066393	0.13123922
187	0xbc525383	-0.012837294
188	0x3cd97fca	0.026550192
189	0xbe1b36c2	-0.15157607
190	0x3d8850eb	0.06656059
191	0x3be78b56	0.0070661707
192	0x3da124c3	0.0786834
193	0xbe9d39ba	-0.30708104
194	0x3c94022a	0.018067438
195	0xbe8853ef	-0.26626536
196	0xbd9a69ce	-0.07539712
197	0xbe93a285	-0.2883493
198	0x3cbb9c28	0.02290161
199	0xbe8efd73	-0.2792774
200	0x3dbe1e9e	0.092831835
201	0xbe6ea54c	-0.23305243
202	0xbd404f2b	-0.0469505
203	0xbe1d002a	-0.15332094
204	0xbe01ed2a	-0.12688127
205	0xbcc3e0eb	-0.02391096
206	0x3c9be571	0.019030305
207	0xbe5604cc	-0.20900267
208	0x3e03b365	0.12861402
209	0xbee4789b	-0.44623265
210	0x3dd2cd84	0.10293105
211	0xbdccccc8	-0.099999964
212	0x3dab98c8	0.0837875
213	0x3e8bfcca	0.273413
214	0x3d9f604e	0.077820405
215	0xbd4f7d29	-0.05065647
216	0x3ba212b1	0.004946076
217	0x3e4e3532	0.2013748
218	0x3da129bf	0.078692906
219	0x3e18a678	0.14907253
220	0x3dc756ae	0.0973333
221	0xbd359b5c	-0.044337615
222	0x3d421a7e	0.047388546
223	0x3e636996	0.22208247
224	0xbd14147c	-0.036152348
225	0x3e7cb6b0	0.24679065
226	0xbd4f4692	-0.05060441
227	0x3e2db32e	0.16962883
228	0x3e1860c2	0.1488066
229	0x3c707fcd	0.014678908
230	0xbd03a61b	-0.032140832
231	0x3e5d57c0	0.21615505
232	0xbd2d7f67	-0.04235783
233	0x3ec39a83	0.3820382
234	0xbbe62d75	-0.007024462
235	0x3e192e03	0.14958958
236	0x3e9ffa9d	0.3124589
237	0xbe93a81f	-0.28839204
238	0x3c1fd1cc	0.009754609
239	0x3e017d55	0.12645467
240	0x3ec73bea	0.38912898
241	0x3d98ffe7	0.074706845
242	0x3cfcec7c	0.030874483
243	0x3c8cb1c7	0.017174615
244	0xbdd8c70e	-0.10584842
245	0x3d9fe7f5	0.07807914
246	0x3d9e31c3	0.07724335
247	0xbd980ace	-0.07423936
248	0x3ec48637	0.38383648
249	0x3d3e75d8	0.046499103
250	0x3d453140	0.04814267
251	0x3da7869e	0.08179973
252	0x3d29b249	0.04142979
253	0x3d40d355	0.047076542
254	0x3dbe0c25	0.0927966
255	0xbd148db9	-0.03626797

fc1.bias f4 [128]
0	0x3d44c547	0.0480397
1	0xbdf2744c	-0.11838588
2	0xbe5b327f	-0.21405981
3	0x3da78836	0.08180277
4	0xbe89e643	-0.26933488
5	0x3d635ca0	0.055508256
6	0x3c355a7f	0.011068939
7	0xbd79a785	-0.060950775
8	0x3b06b871	0.0020556713
9	0xbd9d898f	-0.07692253
10	0xbe1a12eb	-0.15046279
11	0xbcc1694a	-0.023609776
12	0xbd99c378	-0.07507986
13	0xbe36ea10	-0.17862725
14	0xbe015bb6	-0.12632641
15	0xbe1ed53d	-0.15511031
16	0xbdd2a1e9	-0.10284788
17	0xbe21f6b8	-0.15816772
18	0xbe072928	-0.13199294
19	0x3e262ae0	0.16227293
20	0xbd2dc764	-0.04242648
21	0xbc64706f	-0.013942822
22	0xbe245725	-0.16048868
23	0xbe47ccd7	-0.19511734
24	0x3dda4baf	0.10658967
25	0xbc629e6d	-0.013831717
26	0x3df6ac0e	0.120445356
27	0xbdb1149b	-0.08646508
28	0x3d548f40	0.051894426
29	0x3d181772	0.037131734
30	0xbd6faad7	-0.058512535
31	0xbe508269	-0.20362248
32	0xbce75fef	-0.028243987
33	0xbe190e21	-0.14946796
34	0xbe09dd29	-0.13463272
35	0x3d7e2b60	0.062053084
36	0xbdba08e5	-0.09083728
37	0xbe5fb305	-0.21845634
38	0x3d85ca84	0.065327674
39	0xbd158fde	-0.036514156
40	0x3dca95f3	0.09891882
41	0xbca36604	-0.019946106
42	0x3e43e32f	0.19129632
43	0xbde8c4b1	-0.11365641
44	0x3db42d87	0.08797746
45	0xbd908f81	-0.07058621
46	0xbd244f6e	-0.040114813
47	0xbd393bfb	-0.045223217
48	0xbe82bc78	-0.25534415
49	0xbdb0840b	-0.08618935
50	0x3dd1a14b	0.10235842
51	0x3e60cca6	0.21953067
52	0x3d8510ee	0.0649737
53	0x3da152cd	0.07877121
54	0x3d9af8b9	0.07566971
55	0x3def49ca	0.11683996
56	0x3c90a5ba	0.01765715
57	0xbc2ec596	-0.010667225
58	0x3e38890f	0.18021034
59	0xbca57bff	-0.020200728
60	0xbdb17d9c	-0.08666536
61	0x3e736e6f	0.23772596
62	0x3dbf1b38	0.093313634
63	0xbb24de52	-0.0025156927
64	0xbcf5c0b9	-0.029999124
65	0xbe1e3818	-0.15451086
66	0xbe53027b	-0.20606415
67	0x3c8ee25f	0.017441927
68	0xbe7de2bd	-0.24793525
69	0xbe03cfe4	-0.12872273
70	0xbe4a0f08	-0.19732296
71	0xbdd10846	-0.10206656
72	0xbbc50af4	-0.0060132686
73	0x3e660467	0.22462617
74	0x3ccf1379	0.02527784
75	0x3bdd56b6	0.0067547215
76	0xbe6bf438	-0.23042381
77	0x3dbf07e3	0.09327676
78	0x3c9aae1d	0.018881852
79	0xbeb8e8e7	-0.3611519
80	0xbdb9c1d6	-0.090701744
81	0xbe121fd8	-0.1426996
82	0xbdbc2bb2	-0.09188022
83	0xbe29f3ba	-0.1659688
84	0x3c6b1235	0.014347603
85	0xbd0999f7	-0.033594098
86	0xbdeeb50e	-0.11655627
87	0x3db3c2e8	0.0877741
88	0x3e01ce4e	0.12676355
89	0x3e1e0423	0.15431266
90	0x3dcbb800	0.099472046
91	0xbc9ef7be	-0.019405242
92	0x3e58f1d3	0.21185999
93	0x3e29165c	0.16512436
94	0x3e7b6d8c	0.24553508
95	0x3e42d411	0.1902621
96	0xbdc656cd	-0.09684525
97	0xbc532eb6	-0.012889555
98	0xbe0a40fc	-0.13501352
99	0xbd922837	-0.071365766
100	0xbdaa0ede	-0.08303617
101	0x3dd96ab5	0.10616056
102	0xbe575795	-0.21029504
103	0x3dc59282	0.09647085
104	0xbe0befe2	-0.13665727
105	0x3d32a878	0.043617696
106	0x3d967cfd	0.073480584
107	0xbe415b2d	-0.18882437
108	0xbe322fbf	-0.17401026
109	0xbe20c436	-0.15699849
110	0x3dcb24b8	0.09919113
111	0x3b7c3d97	0.003848886
112	0x3e835e8b	0.25658068
113	0x3d6ba56c	0.057530805
114	0xbd251999	-0.040307615
115	0xbe27a636	-0.16371998
116	0xbbf38fcc	-0.0074329134
117	0xbd1cb2aa	-0.038256325
118	0x3e01ccf9	0.12675847
119	0xbe4deba5	-0.20109423
120	0x3e974b17	0.29549477
121	0x3d768370	0.060183942
122	0xbd40334f	-0.04692393
123	0xbc97562a	-0.018473703
124	0xbe3ef051	-0.18646361
125	0xbd468baa	-0.048473038
126	0xbcfb656f	-0.030688016
127	0x3cc23167	0.023705197

fc2.weight f4 [128, 128]
0	0x3c049131	0.008091257
1	0x3d01bfb6	0.03167697
2	0x3da079c2	0.078357235
3	0xbdb08586	-0.086192176
4	0xbeb8a63d	-0.3606433
5	0x3e639b83	0.22227292
6	0x3da5cb1d	0.080953814
7	0x3c87e940	0.016590714
8	0x3dbd12c9	0.092320986
9	0x3dcdbff3	0.10046377
10	0x3dd313b6	0.10306494
11	0xbe17d3d3	-0.14826898
12	0xbe6ceefd	-0.23138042
13	0x3de7e6af	0.11323296
14	0xbdd30745	-0.10304121
15	0x3daf0b3e	0.08547066
16	0xbe8e165f	-0.27751443
17	0xbdea6fe8	-0.11447126
18	0xbe911e7c	-0.2834357
19	0xbe3e48c3	-0.18582444
20	0xbcfb7851	-0.03069702
21	0x3ed11287	0.40834448
22	0xbec5b8f6	-0.38617676
23	0x3dfc7496	0.123269245
24	0x3e2ec6f5	0.17068084
25	0xbdcb6e10	-0.09933102
26	0xbd8e8001	-0.069580086
27	0x3e275feb	0.16345184
28	0xbd125471	-0.03572506
29	0xbea3db35	-0.3200318
30	0x3e3992ea	0.1812245
31	0x3ddff861	0.109360464
32	0x3cd74b5c	0.026281051
33	0x3a19d7bd	0.00058686343
34	0x3e4cdb26	0.20005473
35	0xbdde873f	-0.1086564
36	0x3dfadfa0	0.12249684
37	0xbe235e39	-0.15953912
38	0x3be10b5e	0.00686781
39	0x3d991c3f	0.07476091
40	0xbea7566f	-0.3268313
41	0xbe7c7da5	-0.24657305
42	0xbe97a3e9	-0.2961724
43	0x3c0d116a	0.008610109
44	0x3bb45695	0.0055034854
45	0xbd59e922	-0.05320085
46	0x3d560e3c	0.05225967
47	0x3d48dc06	0.049037956
48	0xbbfa1e78	-0.0076330267
49	0xbe1790d0	-0.14801335
50	0x3d03e12e	0.03219717
51	0x3ce9833a	0.028504957
52	0x3d64393f	0.055718657
53	0x3cb44316	0.022004645
54	0xbd4381cf	-0.047731217
55	0x3e7409bc	0.23831838
56	0x3dea0c3f	0.11428117
57	0x3e2271a2	0.1586366
58	0xbe3fe949	-0.18741335
59	0xbe14ff80	-0.1455059
60	0xbd56597e	-0.05233144
61	0xbe9dc523	-0.30814466
62	0x3dab0c33	0.08351936
63	0x3d87a343	0.066229366
64	0xbea6caeb	-0.3257669
65	0xbdbe8acd	-0.09303818
66	0x3e41846e	0.18898174
67	0xbe93afec	-0.28845155
68	0xbecee11f	-0.4040613
69	0xb9e74ae9	-0.00044115566
70	0x3df8258a	0.12116535
71	0x3e5942dd	0.21216913
72	0xbeae2895	-0.34015337
73	0x3e8cd0c8	0.27503037
74	0xbdfc0ab4	-0.12306729
75	0x3dc1cde4	0.09463099
76	0xbc745c3b	-0.014914568
77	0xbde35242	-0.11099674
78	0xbebfdd49	-0.37473515
79	0x3e52420d	0.20533009
80	0xbdc2b47b	-0.0950708
81	0x3d7a3317	0.06108388
82	0xbec20578	-0.37894797
83	0xbe417465	-0.18892057
84	0x3e6305f0	0.22170234
85	0x3da50664	0.080578595
86	0xbd1ac448	-0.037784845
87	0xbdef8ea8	-0.116971314
88	0x3c7e5da0	0.015525252
89	0xbec3958b	-0.3820003
90	0x3e32f4d0	0.17476201
91	0x3df73907	0.12071424
92	0x3e698700	0.22805405
93	0x3ea39ee1	0.31957152
94	0xbf373571	-0.7156592
95	0xbe2426c3	-0.16030411
96	0x3e8c612f	0.27417895
97	0x3d176d8d	0.03696971
98	0xbe011bb3	-0.12608223
99	0xbd918a45	-0.07106451
100	0xbe658ab9	-0.224162
101	0x3c04381e	0.00807002
102	0x3e448e37	0.19194876
103	0x3e6d7121	0.23187687
104	0x3d7069c0	0.0586946
105	0x3ce84945	0.02835525
106	0x3e153edc	0.1457476
107	0xba3078f1	-0.0006731889
108	0xbc906dbb	-0.017630449
109	0x3cc9a83f	0.024616359
110	0xbccad04e	-0.02475753
111	0xbc73a7b4	-0.0148715265
112	0x3d49d058	0.049270958
113	0x3d81f146	0.063448474
114	0x3de7b996	0.113146946
115	0xbea1c028	-0.31591916
116	0xbcce81da	-0.025208402
117	0xbea0ba0c	-0.31391943
118	0x3cda9ff1	0.026687594
119	0x3def578f	0.11686622
120	0xbdc21748	-0.09477097
121	0xbe0ac5f5	-0.13552077
122	0xbd702593	-0.058629584
123	0x3e3ad65a	0.18245831
124	0xbc107293	-0.008816379
125	0xbe4f3451	-0.20234801
126	0xbe472d91	-0.19450976
127	0x3db01f45	0.08599714
128	0xbe944ae2	-0.2896338
129	0x3bb99e42	0.0056646178
130	0xbd865891	-0.065598615
131	0xbb517ea4	-0.0031966353
132	0xbda92c8e	-0.08260451
133	0x3c872a9e	0.016499814
134	0x3d957b4e	0.07298909
135	0x3dc20306	0.09473233
136	0x3d79aba2	0.060954697
137	0xbdcbeb7c	-0.099570245
138	0x3e414157	0.18872581
139	0xbe636d84	-0.22209746
140	0xbcb35b4f	-0.021894125
141	0x3aa82efb	0.0012831384
142	0xbed10e55	-0.40831247
143	0x3be93c32	0.0071177715
144	0xbee02f54	-0.43786108
145	0xbe3f09a5	-0.18656023
146	0xbd5893c3	-0.05287529
147	0xbdaecb71	-0.08534897
148	0x3b4c2309	0.0031148812
149	0x3f14b244	0.5808451
150	0xbc6c8139	-0.014435106
151	0xbd8c3a72	-0.06847085
152	0x3e08a1cc	0.1334297
153	0xbe1e607f	-0.15466498
154	0xbe26bcc5	-0.16282947
155	0xbe9511a0	-0.2911501
156	0x3e619f33	0.22033386
157	0x3e529a50	0.20566678
158	0xbe6a6780	-0.22891045
159	0xbb6b4802	-0.0035901074
160	0x3db706e1	0.08936859
161	0x3dccb4d8	0.09995431
162	0x3da25b96	0.07927625
163	0x3e1c1843	0.1524363
164	0xbb60b9c0	-0.0034290403
165	0x3d858695	0.0651981
166	0xbdfdb761	-0.123884924
167	0xbddf1484	-0.10892585
168	0x3e6ec7cf	0.23318408
169	0x3d91c8a3	0.071183465
170	0xbe5e0895	-0.21682961
171	0x3e0ffbb0	0.14060855
172	0x3dbda51e	0.09260009
173	0xbdde9195	-0.10867611
174	0x3c571f44	0.013130013
175	0xbec93402	-0.3929749
176	0xbe40eb3d	-0.18839736
177	0x3daefe1b	0.085445605
178	0xbdef6892	-0.11689867
179	0x3e8cfafb	0.27535233
180	0x3e2cbe86	0.16869554
181	0xbe910c2e	-0.28329605
182	0xbe279fbb	-0.16369526
183	0xbce334b1	-0.027735086
184	0xbe242006	-0.16027841
185	0xbd5afc48	-0.05346325
186	0x3dd3dd3a	0.1034493
187	0x3e8120a6	0.2522022
188	0xbc9562a3	-0.01823551
189	0x3e87ef45	0.26549736
190	0xbe4f10e0	-0.20221281
191	0xbd87e329	-0.06635124
192	0xbdb798ac	-0.08964667
193	0xbd026bcc	-0.031841084
194	0xbeaf5a3b	-0.34248528
195	0xbda30208	-0.07959372
196	0xbdf58047	-0.119873576
197	0xbd4ab539	-0.049489234
198	0xbcf67651	-0.030085715
199	0x3e555c4b	0.20835988
200	0xbddd052c	-0.10792002
201	0x3e4aa9f6	0.19791397
202	0x3db88dde	0.09011434
203	0xbe0d1302	-0.13776782
204	0x3da3955e	0.07987474
205	0xbd0abc24	-0.03387083
206	0xbe9699c0	-0.29414177
207	0xbec69235	-0.38783422
208	0x3da551cc	0.08072242
209	0xbe1faff6	-0.15594468
210	0xbe35cf41	-0.17754842
211	0xbe36e31b	-0.17860071
212	0xbe3c0511	-0.18361308
213	0x3e51b799	0.20480193
214	0xbe07bba9	-0.1325518
215	0xbddea073	-0.10870447
216	0xbe9ea714	-0.30986845
217	0x3e32c515	0.17457993
218	0x3dcb0ee1	0.09914947
219	0xbd368240	-0.04455781
220	0xbe610fc2	-0.21978667
221	0x3d930717	0.07179087
222	0x3df61479	0.120156236
223	0x3e809480	0.25113297
224	0x3e7ffe07	0.24999247
225	0xbe23ad9b	-0.15984194
226	0x3e74a1f0	0.23889899
227	0xbce23118	-0.0276113
228	0xbdf70d79	-0.120631166
229	0x3d4ddeaf	0.050261196
230	0x3dcef20d	0.10104761
231	0xbd7b711e	-0.061387174
232	0x3ce76022	0.028244082
233	0xbc993132	-0.018700216
234	0xbd450b64	-0.048106566
235	0x3d0e9788	0.03481248
236	0x3d06d5eb	0.03291885
237	0x3c5b4716	0.013383647
238	0x3db889d2	0.09010662
239	0xbe751c4c	-0.23936576
240	0xbdb2d8ff	-0.08732795
241	0xbd38d78a	-0.04512743
242	0xbdc1f2e3	-0.09470155
243	0xbe7b5efa	-0.2454795
244	0x3dd5cd11	0.10439504
245	0x3da151c2	0.07876922
246	0x3ea0ce45	0.3140737
247	0xbd5f9fdc	-0.054595813
248	0xbe234cd4	-0.15947276
249	0xbe3fc76c	-0.18728417
250	0xbcd339d6	-0.025784414
251	0xbdae2a22	-0.0850413
252	0xbe737fe4	-0.23779255
253	0xbb8e422a	-0.0043413835
254	0x3d701e06	0.058622383
255	0xbce4d776	-0.027934771

fc2.bias f4 [128]
0	0xbd85b9b3	-0.0652956
1	0x3e1494ed	0.14509936
2	0xbddc3c24	-0.107536584
3	0xbd82aea1	-0.06380964
4	0xbce28a0b	-0.027653715
5	0x3e074ca4	0.1321283
6	0xbe5de1aa	-0.21668115
7	0x3db7f8e8	0.08983022
8	0x3d0f431d	0.034976114
9	0x3dbae976	0.091265604
10	0x3b3dc6e4	0.002895766
11	0xbbbf4bd8	-0.0058378987
12	0x3c47da7b	0.012198086
13	0xbcbfdc18	-0.023420379
14	0x3c68f36a	0.014218191
15	0x3cc9c5c2	0.024630431
16	0x3e13e32a	0.14442125
17	0x3e29341b	0.16523783
18	0xbe22a98d	-0.15884991
19	0xbdcdbffa	-0.10046382
20	0xbdab4350	-0.08362448
21	0x3dd30a68	0.10304719
22	0x3e02bcac	0.12767285
23	0xbdcad1c7	-0.09903293
24	0xbd6da4d8	-0.058018535
25	0x3c60a06e	0.013710124
26	0xbda6311b	-0.08114835
27	0xbdf9ccf0	-0.12197292
28	0x3d96539d	0.07340167
29	0xbcd6da83	-0.026227241
30	0xbd50da48	-0.05098942
31	0x3e23bcdf	0.15990017
32	0xbc7fad5a	-0.015605295
33	0xbe34cfd2	-0.17657402
34	0x3dfc51c8	0.12320286
35	0xbda4b5ba	-0.08042474
36	0x3ca024ff	0.019548891
37	0x3c763129	0.015026369
38	0x3d19c498	0.037541002
39	0xbd912210	-0.07086575
40	0x3ccfb072	0.02535269
41	0x3d6dd259	0.05806193
42	0x3cf19344	0.029489167
43	0x3cd5709d	0.026054675
44	0x3b3c4591	0.0028727988
45	0xbbab4dd1	-0.0052277823
46	0xbd13759f	-0.036000844
47	0x3d3fc62f	0.046819862
48	0xbe85875a	-0.26079828
49	0x3e0ae0bb	0.1356229
50	0x3d098af6	0.03357979
51	0xbcded3f4	-0.027200677
52	0xbd5b2160	-0.053498626
53	0x3c5f827d	0.013641951
54	0xbdcb9171	-0.0993985
55	0xbe0332f9	-0.12812413
56	0xbd8ac5ae	-0.06775986
57	0x3deaa5a8	0.11457378
58	0xbd60204e	-0.05471831
59	0x3db46173	0.088076495
60	0x3d040a55	0.032236416
61	0xbbdff2f6	-0.006834383
62	0xbdfecd3a	-0.124414876
63	0x3c6bac58	0.014384352
64	0xbd381e33	-0.044950675
65	0xbd063c8a	-0.03277258
66	0xbbcb2e40	-0.006200582
67	0xbe48fedd	-0.19628473
68	0x3e058157	0.1303762
69	0xbe21c556	-0.15797934
70	0xbddb2783	-0.10700896
71	0xbdaa0fde	-0.08303808
72	0x3d348c0e	0.04407888
73	0x3dc4b94b	0.09605654
74	0x3c9d207c	0.019180529
75	0xbd0d9bac	-0.03457229
76	0xbd9f6d7f	-0.077845566
77	0x3d3ba83e	0.045814745
78	0x3d318894	0.04334314
79	0xbd5acc23	-0.053417336
80	0xbe4008bf	-0.18753336
81	0x3e362c17	0.17790256
82	0x3cf6d676	0.03013156
83	0x3a878259	0.0010338529
84	0x3d963f81	0.07336331
85	0x3de7368a	0.112896994
86	0xbdbff9b7	-0.09373801
87	0x3da62958	0.081133544
88	0xbaeb5839	-0.001795537
89	0x3e1c1944	0.15244013
90	0x3ca61799	0.020274924
91	0xbdcdea3d	-0.10054443
92	0x3da0e3f4	0.078559786
93	0xbd5ceb1a	-0.053935148
94	0x3cf28a6c	0.02960702
95	0x3d605d6f	0.054776605
96	0xbd142402	-0.036167152
97	0x3c31c50d	0.010850203
98	0x3e0cd7be	0.13754174
99	0xbbabc28b	-0.005241697
100	0x3e209adf	0.15684079
101	0x3e0dc29f	0.13843773
102	0xbd7f3794	-0.062308863
103	0x3d02384b	0.031791966
104	0x3c6bdc9b	0.014395858
105	0xbd139623	-0.036031853
106	0xbd7c34fb	-0.061573964
107	0x3d936464	0.07196882
108	0x3c9de5c5	0.019274602
109	0xbd381f8f	-0.04495197
110	0xbe049fd9	-0.12951602
111	0x3ac5dc5b	0.0015095578
112	0xbb21e32c	-0.0024702055
113	0xbce87356	-0.028375309
114	0xbd51ff45	-0.051268835
115	0x3cdd1cdc	0.0269913
116	0xbdc5e187	-0.096621566
117	0xbc1fb357	-0.009747348
118	0x3d4d68e2	0.050148852
119	0xbdb82d73	-0.08993044
120	0x3ce75c9f	0.028242407
121	0xbdc19793	-0.094527386
122	0x3d14611d	0.036225427
123	0xbc02bd71	-0.007979737
124	0xbd279e4a	-0.04092244
125	0xba4e9880	-0.00078810006
126	0xbd4722a9	-0.04861704
127	0xbd5c98be	-0.053856604

batch_norm2.weight f4 [128]
0	0x3d967ed0	0.07348406
1	0x3e048674	0.12941915
2	0x3f57bdf5	0.84274226
3	0x3f564189	0.8369375
4	0x3e85be12	0.26121575
5	0x3f19e0c1	0.6010857
6	0x3e9ef686	0.31047457
7	0x3ed0e630	0.4080062
8	0x3dd86630	0.10566366
9	0x3e16686c	0.14688271
10	0x3e70aa70	0.23502517
11	0x3e2b6d54	0.16740924
12	0x3e0ce324	0.13758522
13	0x3f54f943	0.83192843
14	0x3f40951e	0.75227535
15	0x3f2dcae1	0.67887694
16	0x3e14c4d0	0.14528203
17	0x3f61406b	0.8798892
18	0x3f7999a5	0.9750007
19	0x3d005a70	0.031336248
20	0x3f1a7885	0.6034015
21	0x3e771eb0	0.241328
22	0x3f3cd323	0.7375967
23	0x3e97de34	0.29661715
24	0x3e18e3ec	0.14930695
25	0x3f56e4a8	0.8394265
26	0x3e1d0464	0.15333706
27	0x3f087f72	0.53319466
28	0x3e264a28	0.16239226
29	0x3f2c8311	0.6738749
30	0x3ed38a08	0.41316247
31	0x3e326a4c	0.17423362
32	0x3f7123f1	0.9419547
33	0x3f2d7ffe	0.67773426
34	0x3b98d100	0.0046635866
35	0x3f0dedc9	0.55440956
36	0x3f46bcef	0.7763204
37	0x3e9b9686	0.30388278
38	0x3e3a5868	0.18197787
39	0x3f504435	0.81354076
40	0x3ed0a590	0.40751314
41	0x3f7fe9bc	0.99966025
42	0x3e81cdd4	0.25352347
43	0x3f76dc8b	0.9643027
44	0x3f212f90	0.629632
45	0x3f0a25fe	0.5396422
46	0x3d9dcb70	0.07704818
47	0x3edba132	0.4289642
48	0x3d52fa50	0.051508248
49	0x3f222400	0.6333618
50	0x3a1b5800	0.0005925894
51	0x3f28a944	0.6588328
52	0x3e8aa92e	0.270822
53	0x3f4234c9	0.75861794
54	0x3de876b8	0.11350769
55	0x3f47a56a	0.77986777
56	0x3dd92060	0.10601878
57	0x3f35473a	0.7081181
58	0x3f1c175a	0.6097313
59	0x3f7fa69d	0.99863607
60	0x3f6bc488	0.9209676
61	0x3d53cec0	0.051710844
62	0x3c89aba0	0.01680547
63	0x3f19f526	0.6013969
64	0x3e4787d0	0.19485402
65	0x3ef848ba	0.48492986
66	0x3f612c09	0.8795782
67	0x3f69a439	0.9126621
68	0x3e9101de	0.28321737
69	0x3c92caa0	0.017918885
70	0x3e4ba6c8	0.19887841
71	0x3e1fce38	0.1560601
72	0x3f362340	0.7114754
73	0x3ddd4ec0	0.10806036
74	0x3f69f94d	0.9139603
75	0x3c917d20	0.01775986
76	0x3edc2e12	0.430039
77	0x3dc4c420	0.096077204
78	0x3ea92a68	0.33040166
79	0x3f7ee58f	0.9956903
80	0x3ec14a74	0.37752116
81	0x3f59baf7	0.8505091
82	0x3d6020d0	0.054718792
83	0x3da06b20	0.078329325
84	0x3f3afa68	0.7303834
85	0x3ec5e314	0.3864981
86	0x3ef38cce	0.47568363
87	0x3ee97296	0.45595235
88	0x3e2a3324	0.16621071
89	0x3d0829f0	0.03324312
90	0x3efd5886	0.494816
91	0x3f77a7eb	0.967406
92	0x3e883b58	0.26607776
93	0x3ed8e916	0.4236533
94	0x3f23e024	0.64013886
95	0x3f495ba3	0.7865545
96	0x3f1fe004	0.62451196
97	0x3ea5f1de	0.32411093
98	0x3f1bfa98	0.6092925
99	0x3eff8236	0.4990403
100	0x3f377db5	0.7167619
101	0x3f297767	0.6619782
102	0x3f62895b	0.8849084
103	0x3eb41bca	0.3517745
104	0x3f08a508	0.5337682
105	0x3eae1984	0.34003842
106	0x3decebc0	0.11568403
107	0x3e838dbe	0.25694078
108	0x3f4f81e8	0.81057596
109	0x3eaf1eea	0.34203273
110	0x3f085a4d	0.5326279
111	0x3f4f63f7	0.8101191
112	0x3f6a5913	0.91542166
113	0x3e8c475a	0.27398187
114	0x3b756d00	0.0037449002
115	0x3d537ba0	0.05163157
116	0x3ebd2bee	0.36947578
117	0x3f1b1003	0.60571307
118	0x3eb771f6	0.35829133
119	0x3ef4c83e	0.47809023
120	0x3f5edd09	0.8705602
121	0x3f146e09	0.579804
122	0x3f2f0295	0.68363315
123	0x3f279596	0.65462625
124	0x3d40c230	0.04706019
125	0x3e7a0dbc	0.24419302
126	0x3e0efae0	0.13962889
127	0x3eb19a56	0.3468806

batch_norm2.bias f4 [128]
0	0x00000000	0.0
1	0x00000000	0.0
2	0x00000000	0.0
3	0x00000000	0.0
4	0x00000000	0.0
5	0x00000000	0.0
6	0x00000000	0.0
7	0x00000000	0.0
8	0x00000000	0.0
9	0x00000000	0.0
10	0x00000000	0.0
11	0x00000000	0.0
12	0x00000000	0.0
13	0x00000000	0.0
14	0x00000000	0.0
15	0x00000000	0.0
16	0x00000000	0.0
17	0x00000000	0.0
18	0x00000000	0.0
19	0x00000000	0.0
20	0x00000000	0.0
21	0x00000000	0.0
22	0x00000000	0.0
23	0x00000000	0.0
24	0x00000000	0.0
25	0x00000000	0.0
26	0x00000000	0.0
27	0x00000000	0.0
28	0x00000000	0.0
29	0x00000000	0.0
30	0x00000000	0.0
31	0x00000000	0.0
32	0x00000000	0.0
33	0x00000000	0.0
34	0x00000000	0.0
35	0x00000000	0.0
36	0x00000000	0.0
37	0x00000000	0.0
38	0x00000000	0.0
39	0x00000000	0.0
40	0x00000000	0.0
41	0x00000000	0.0
42	0x00000000	0.0
43	0x00000000	0.0
44	0x00000000	0.0
45	0x00000000	0.0
46	0x00000000	0.0
47	0x00000000	0.0
48	0x00000000	0.0
49	0x00000000	0.0
50	0x00000000	0.0
51	0x00000000	0.0
52	0x00000000	0.0
53	0x00000000	0.0
54	0x00000000	0.0
55	0x00000000	0.0
56	0x00000000	0.0
57	0x00000000	0.0
58	0x00000000	0.0
59	0x00000000	0.0
60	0x00000000	0.0
61	0x00000000	0.0
62	0x00000000	0.0
63	0x00000000	0.0
64	0x00000000	0.0
65	0x00000000	0.0
66	0x00000000	0.0
67	0x00000000	0.0
68	0x00000000	0.0
69	0x00000000	0.0
70	0x00000000	0.0
71	0x00000000	0.0
72	0x00000000	0.0
73	0x00000000	0.0
74	0x00000000	0.0
75	0x00000000	0.0
76	0x00000000	0.0
77	0x00000000	0.0
78	0x00000000	0.0
79	0x00000000	0.0
80	0x00000000	0.0
81	0x00000000	0.0
82	0x00000000	0.0
83	0x00000000	0.0
84	0x00000000	0.0
85	0x00000000	0.0
86	0x00000000	0.0
87	0x00000000	0.0
88	0x00000000	0.0
89	0x00000000	0.0
90	0x00000000	0.0
91	0x00000000	0.0
92	0x00000000	0.0
93	0x00000000	0.0
94	0x00000000	0.0
95	0x00000000	0.0
96	0x00000000	0.0
97	0x00000000	0.0
98	0x00000000	0.0
99	0x00000000	0.0
100	0x00000000	0.0
101	0x00000000	0.0
102	0x00000000	0.0
103	0x00000000	0.0
104	0x00000000	0.0
105	0x00000000	0.0
106	0x00000000	0.0
107	0x00000000	0.0
108	0x00000000	0.0
109	0x00000000	0.0
110	0x00000000	0.0
111	0x00000000	0.0
112	0x00000000	0.0
113	0x00000000	0.0
114	0x00000000	0.0
115	0x00000000	0.0
116	0x00000000	0.0
117	0x00000000	0.0
118	0x00000000	0.0
119	0x00000000	0.0
120	0x00000000	0.0
121	0x00000000	0.0
122	0x00000000	0.0
123	0x00000000	0.0
124	0x00000000	0.0
125	0x00000000	0.0
126	0x00000000	0.0
127	0x00000000	0.0

batch_norm2.running_mean f4 [128]
0	0x00000000	0.0
1	0x00000000	0.0
2	0x00000000	0.0
3	0x00000000	0.0
4	0x00000000	0.0
5	0x00000000	0.0
6	0x00000000	0.0
7	0x00000000	0.0
8	0x00000000	0.0
9	0x00000000	0.0
10	0x00000000	0.0
11	0x00000000	0.0
12	0x00000000	0.0
13	0x00000000	0.0
14	0x00000000	0.0
15	0x00000000	0.0
16	0x00000000	0.0
17	0x00000000	0.0
18	0x00000000	0.0
19	0x00000000	0.0
20	0x00000000	0.0
21	0x00000000	0.0
22	0x00000000	0.0
23	0x00000000	0.0
24	0x00000000	0.0
25	0x00000000	0.0
26	0x00000000	0.0
27	0x00000000	0.0
28	0x00000000	0.0
29	0x00000000	0.0
30	0x00000000	0.0
31	0x00000000	0.0
32	0x00000000	0.0
33	0x00000000	0.0
34	0x00000000	0.0
35	0x00000000	0.0
36	0x00000000	0.0
37	0x00000000	0.0
38	0x00000000	0.0
39	0x00000000	0.0
40	0x00000000	0.0
41	0x00000000	0.0
42	0x00000000	0.0
43	0x00000000	0.0
44	0x00000000	0.0
45	0x00000000	0.0
46	0x00000000	0.0
47	0x00000000	0.0
48	0x00000000	0.0
49	0x00000000	0.0
50	0x00000000	0.0
51	0x00000000	0.0
52	0x00000000	0.0
53	0x00000000	0.0
54	0x00000000	0.0
55	0x00000000	0.0
56	0x00000000	0.0
57	0x00000000	0.0
58	0x00000000	0.0
59	0x00000000	0.0
60	0x00000000	0.0
61	0x00000000	0.0
62	0x00000000	0.0
63	0x00000000	0.0
64	0x00000000	0.0
65	0x00000000	0.0
66	0x00000000	0.0
67	0x00000000	0.0
68	0x00000000	0.0
69	0x00000000	0.0
70	0x00000000	0.0
71	0x00000000	0.0
72	0x00000000	0.0
73	0x00000000	0.0
74	0x00000000	0.0
75	0x00000000	0.0
76	0x00000000	0.0
77	0x00000000	0.0
78	0x00000000	0.0
79	0x00000000	0.0
80	0x00000000	0.0
81	0x00000000	0.0
82	0x00000000	0.0
83	0x00000000	0.0
84	0x00000000	0.0
85	0x00000000	0.0
86	0x00000000	0.0
87	0x00000000	0.0
88	0x00000000	0.0
89	0x00000000	0.0
90	0x00000000	0.0
91	0x00000000	0.0
92	0x00000000	0.0
93	0x00000000	0.0
94	0x00000000	0.0
95	0x00000000	0.0
96	0x00000000	0.0
97	0x00000000	0.0
98	0x00000000	0.0
99	0x00000000	0.0
100	0x00000000	0.0
101	0x00000000	0.0
102	0x00000000	0.0
103	0x00000000	0.0
104	0x00000000	0.0
105	0x00000000	0.0
106	0x00000000	0.0
107	0x00000000	0.0
108	0x00000000	0.0
109	0x00000000	0.0
110	0x00000000	0.0
111	0x00000000	0.0
112	0x00000000	0.0
113	0x00000000	0.0
114	0x00000000	0.0
115	0x00000000	0.0
116	0x00000000	0.0
117	0x00000000	0.0
118	0x00000000	0.0
119	0x00000000	0.0
120	0x00000000	0.0
121	0x00000000	0.0
122	0x00000000	0.0
123	0x00000000	0.0
124	0x00000000	0.0
125	0x00000000	0.0
126	0x00000000	0.0
127	0x00000000	0.0

batch_norm2.running_var f4 [128]
0	0x3f800000	1.0
1	0x3f800000	1.0
2	0x3f800000	1.0
3	0x3f800000	1.0
4	0x3f800000	1.0
5	0x3f800000	1.0
6	0x3f800000	1.0
7	0x3f800000	1.0
8	0x3f800000	1.0
9	0x3f800000	1.0
10	0x3f800000	1.0
11	0x3f800000	1.0
12	0x3f800000	1.0
13	0x3f800000	1.0
14	0x3f800000	1.0
15	0x3f800000	1.0
16	0x3f800000	1.0
17	0x3f800000	1.0
18	0x3f800000	1.0
19	0x3f800000	1.0
20	0x3f800000	1.0
21	0x3f800000	1.0
22	0x3f800000	1.0
23	0x3f800000	1.0
24	0x3f800000	1.0
25	0x3f800000	1.0
26	0x3f800000	1.0
27	0x3f800000	1.0
28	0x3f800000	1.0
29	0x3f800000	1.0
30	0x3f800000	1.0
31	0x3f800000	1.0
32	0x3f800000	1.0
33	0x3f800000	1.0
34	0x3f800000	1.0
35	0x3f800000	1.0
36	0x3f800000	1.0
37	0x3f800000	1.0
38	0x3f800000	1.0
39	0x3f800000	1.0
40	0x3f800000	1.0
41	0x3f800000	1.0
42	0x3f800000	1.0
43	0x3f800000	1.0
44	0x3f800000	1.0
45	0x3f800000	1.0
46	0x3f800000	1.0
47	0x3f800000	1.0
48	0x3f800000	1.0
49	0x3f800000	1.0
50	0x3f800000	1.0
51	0x3f800000	1.0
52	0x3f800000	1.0
53	0x3f800000	1.0
54	0x3f800000	1.0
55	0x3f800000	1.0
56	0x3f800000	1.0
57	0x3f800000	1.0
58	0x3f800000	1.0
59	0x3f800000	1.0
60	0x3f800000	1.0
61	0x3f800000	1.0
62	0x3f800000	1.0
63	0x3f800000	1.0
64	0x3f800000	1.0
65	0x3f800000	1.0
66	0x3f800000	1.0
67	0x3f800000	1.0
68	0x3f800000	1.0
69	0x3f800000	1.0
70	0x3f800000	1.0
71	0x3f800000	1.0
72	0x3f800000	1.0
73	0x3f800000	1.0
74	0x3f800000	1.0
75	0x3f800000	1.0
76	0x3f800000	1.0
77	0x3f800000	1.0
78	0x3f800000	1.0
79	0x3f800000	1.0
80	0x3f800000	1.0
81	0x3f800000	1.0
82	0x3f800000	1.0
83	0x3f800000	1.0
84	0x3f800000	1.0
85	0x3f800000	1.0
86	0x3f800000	1.0
87	0x3f800000	1.0
88	0x3f800000	1.0
89	0x3f800000	1.0
90	0x3f800000	1.0
91	0x3f800000	1.0
92	0x3f800000	1.0
93	0x3f800000	1.0
94	0x3f800000	1.0
95	0x3f800000	1.0
96	0x3f800000	1.0
97	0x3f800000	1.0
98	0x3f800000	1.0
99	0x3f800000	1.0
100	0x3f800000	1.0
101	0x3f800000	1.0
102	0x3f800000	1.0
103	0x3f800000	1.0
104	0x3f800000	1.0
105	0x3f800000	1.0
106	0x3f800000	1.0
107	0x3f800000	1.0
108	0x3f800000	1.0
109	0x3f800000	1.0
110	0x3f800000	1.0
111	0x3f800000	1.0
112	0x3f800000	1.0
113	0x3f800000	1.0
114	0x3f800000	1.0
115	0x3f800000	1.0
116	0x3f800000	1.0
117	0x3f800000	1.0
118	0x3f800000	1.0
119	0x3f800000	1.0
120	0x3f800000	1.0
121	0x3f800000	1.0
122	0x3f800000	1.0
123	0x3f800000	1.0
124	0x3f800000	1.0
125	0x3f800000	1.0
126	0x3f800000	1.0
127	0x3f800000	1.0

fc3.weight f4 [2, 128]
0	0x3e6588b8	0.22415435
1	0x3e7ebec3	0.24877457
2	0xbe0ba180	-0.13635826
3	0xbeb6925c	-0.35658538
4	0x3ddf1b06	0.10893826
5	0x3de2cbdc	0.11074039
6	0xbf0b5c11	-0.5443736
7	0x3dd013d1	0.1016003
8	0xbdf4c0cf	-0.11950838
9	0x3e176a45	0.14786632
10	0xbe0884fa	-0.13331977
11	0xbe5eaf47	-0.2174655
12	0x3e5a1d1d	0.21300168
13	0xbdf1ffc8	-0.118163645
14	0xbe85d9b0	-0.26142645
15	0xbe1d6b49	-0.15372957
16	0x3deb94e3	0.11503007
17	0x3db85cb1	0.090020545
18	0xbe4ff0f2	-0.20306757
19	0x3f29a55d	0.6626795
20	0xbdd06826	-0.10176115
21	0x3e1f015c	0.15527862
22	0x3d6273a8	0.05528608
23	0xbde94b4b	-0.11391314
24	0xbe5c276e	-0.21499416
25	0x3def9579	0.116984315
26	0xbccd97ad	-0.025096739
27	0xbeb958ee	-0.3620066
28	0x3d504ade	0.05085265
29	0xbf100347	-0.56255
30	0xbf1e200c	-0.6176765
31	0x3df68e14	0.12038818
32	0xbdd5e204	-0.104435
33	0xbec453c0	-0.38345146
34	0x3d8ad573	0.067789935
35	0xbeff5b6d	-0.4987444
36	0xbe5728f3	-0.21011715
37	0xbe5db18a	-0.21649757
38	0xbe0c196e	-0.13681576
39	0xbd94b996	-0.0726196
40	0xbe802bb9	-0.25033358
41	0xbe88a21d	-0.26686183
42	0x3bcf6423	0.006329076
43	0x3e1edc39	0.15513696
44	0xbf2a5324	-0.6653311
45	0xbeebfe4e	-0.46092457
46	0xbe424045	-0.1896983
47	0x3c8a071b	0.016849091
48	0xbead3a85	-0.3383371
49	0x3d831a65	0.06401519
50	0x3e0c199b	0.13681643
51	0xbf007658	-0.5018058
52	0xbea26592	-0.31718117
53	0xbf041931	-0.5160094
54	0xbf1343ca	-0.5752531
55	0xbf1256b2	-0.57163537
56	0xbeca32b2	-0.39491802
57	0x3d73951c	0.059468374
58	0xbf1f4073	-0.62207717
59	0x3cc1b486	0.02364565
60	0x3d5fd72c	0.054648563
61	0xbf6abe7b	-0.916969
62	0xbe6f2eb3	-0.23357658
63	0x3df7d73b	0.12101599
64	0xbdc9f17c	-0.098605126
65	0x3f9aff6c	1.2109199
66	0xbd40217e	-0.04690694
67	0xbe00790e	-0.12546179
68	0x3dc7ffb4	0.097655684
69	0x3bce9d40	0.0063053668
70	0xbe762bd3	-0.24040155
71	0xbe88c8ca	-0.2671569
72	0x3d936903	0.07197764
73	0x3d9a7d05	0.07543377
74	0xbc72b252	-0.014813023
75	0xbb393f23	-0.0028266392
76	0xbe498143	-0.19678216
77	0xbf163316	-0.586717
78	0x3dc30817	0.095230274
79	0xbe3c3e6e	-0.1838319
80	0xbea14e01	-0.31504825
81	0x3d83190a	0.0640126
82	0xbec121f1	-0.37721208
83	0x3e7eb8fa	0.2487525
84	0xbe7806c6	-0.24221334
85	0x3efa4b52	0.4888559
86	0xbe950a6a	-0.29109508
87	0xbe8d3d89	-0.2758601
88	0xbe8b67ec	-0.27227724
89	0x3d9481a4	0.072512895
90	0x3e27dc59	0.1639265
91	0xbe6a419a	-0.22876588
92	0xbc469fca	-0.012123058
93	0xbd785b32	-0.060633846
94	0x3ebf5c99	0.37375334
95	0xbdc00960	-0.09376788
96	0xbea2c956	-0.31794232
97	0x3e8a4f51	0.2701364
98	0x3dee3f98	0.11633223
99	0xbed2dc48	-0.41183686
100	0x3e447c7d	0.19188114
101	0xbae4018a	-0.0017395478
102	0x3c6ee497	0.014580867
103	0x3e2129c8	0.15738595
104	0xbe114aee	-0.1418874
105	0xbeebc580	-0.46049118
106	0x3d71cef1	0.059035245
107	0xbe5f851c	-0.21828121
108	0xbea126cd	-0.31474915
109	0xbedf7d8e	-0.43650478
110	0xbe830cf7	-0.2559583
111	0xbf6e835c	-0.9316919
112	0xbed9c8f6	-0.42536134
113	0xbeab2a63	-0.33430776
114	0xbe0e64ef	-0.1390569
115	0xbe00d924	-0.12582833
116	0xbe6eb319	-0.23310508
117	0xbe519889	-0.20468344
118	0x3e124ba8	0.14286673
119	0xbf03901a	-0.51391757
120	0x3dc41e61	0.09576107
121	0xbeb1f176	-0.34754533
122	0xbdc2d195	-0.09512631
123	0x3f0364f4	0.5132592
124	0xbf12df41	-0.5737191
125	0xbe0c9cbf	-0.13731669
126	0xbe7210f6	-0.23639283
127	0xbe26ed67	-0.163015
128	0xbea6b792	-0.32561928
129	0x3ea2e8bc	0.31818187
130	0xbed39546	-0.41324824
131	0x3ee50533	0.4473053
132	0x3ebcd7f7	0.36883518
133	0x3dd36569	0.10322077
134	0xbe519141	-0.20465566
135	0x3d125b53	0.035731625
136	0xbf0acc61	-0.5421811
137	0x3eb4078b	0.35162005
138	0x3fa25921	1.268345
139	0xbf484a62	-0.782385
140	0x3edfb204	0.43690503
141	0xbe8c334c	-0.27382886
142	0xbea35d0e	-0.31906933
143	0x3eb301c8	0.34962296
144	0x3e8c8333	0.27443847
145	0x3e399b37	0.18125616
146	0xbecee268	-0.4040711
147	0xbf69b12a	-0.91285956
148	0xbe26c7a3	-0.16287093
149	0x3ec1cce5	0.37851635
150	0x3c616a68	0.013758279
151	0xbee571df	-0.4481344
152	0x3e7e97b9	0.24862565
153	0xbeb0343f	-0.3441486
154	0x3c3deee7	0.011592603
155	0xbeb750b1	-0.3580375
156	0x3cc30d1e	0.023809966
157	0x3da3f880	0.08006382
158	0xbe96cac9	-0.29451588
159	0x3d829f47	0.06378036
160	0x3e360f9b	0.1777939
161	0xbf1d5442	-0.6145669
162	0x3b99c9b9	0.0046932367
163	0x3e11bc9b	0.14232104
164	0xbe561885	-0.20907791
165	0x3f86cecc	1.0531859
166	0x3eb706f8	0.35747504
167	0xbf4381d8	-0.7637
168	0xbe4b22c1	-0.19837476
169	0xbec4dd1f	-0.38449952
170	0xbee657f8	-0.4498899
171	0xbeb20252	-0.34767395
172	0xbf035b8b	-0.5131156
173	0x3e8f1175	0.27943006
174	0xbea5efb7	-0.3240945
175	0xbea6f775	-0.3261067
176	0xbea98531	-0.3310943
177	0x3e3e349a	0.18574753
178	0x3e6ca320	0.23109102
179	0x3e59e454	0.21278507
180	0x3e88c821	0.26715186
181	0xbe2b45d0	-0.1672585
182	0xbe3960df	-0.1810336
183	0xbdc582d3	-0.09644093
184	0x3e22ad4d	0.15886422
185	0x3e8dee1f	0.27720734
186	0xbeed7f85	-0.46386352
187	0x3e8a9142	0.27063948
188	0x3d9a343f	0.075294964
189	0xbecc53ed	-0.3990778
190	0xbea1a696	-0.31572407
191	0x3c46b8ec	0.01212905
192	0x3ce08a7b	0.027409783
193	0xbf33de10	-0.70260715
194	0xbd72b102	-0.05925084
195	0xbe01a153	-0.12659197
196	0x3db2aaea	0.087240055
197	0xbeec0692	-0.46098763
198	0x3d66a4c3	0.056309473
199	0xbc0f04bf	-0.008729159
200	0xbf0cb3a8	-0.54961634
201	0x3edc9c73	0.4308811
202	0x3ee0081d	0.4375619
203	0x3e822f41	0.25426677
204	0x3e08b555	0.13350423
205	0xbf4482bb	-0.7676198
206	0x3d521c98	0.0512968
207	0x3d8ea99a	0.06965943
208	0xbe731296	-0.23737559
209	0x3ccc023a	0.024903405
210	0x3ea03da9	0.31297043
211	0x3e85b83e	0.26117128
212	0x3dec5853	0.11540284
213	0xbee9937d	-0.45620337
214	0xbe2d5672	-0.16927508
215	0xbe763358	-0.24043024
216	0xbca2fab2	-0.019894931
217	0x3d36add5	0.044599373
218	0xbf12ee0c	-0.5739448
219	0xbc5f8215	-0.013641854
220	0xbeefbb30	-0.468225
221	0xbe80b1e0	-0.25135708
222	0x3e4e4ea4	0.20147187
223	0xbde3120a	-0.11087425
224	0xbe8fd334	-0.28090823
225	0xbf06f598	-0.52718496
226	0x3b91c95d	0.004449053
227	0xbe57cf6f	-0.21075223
228	0xbe7eded6	-0.24889693
229	0xbf0ecf4e	-0.5578507
230	0xbf036f39	-0.5134159
231	0xbf4c825e	-0.79886425
232	0x3dd78648	0.10523659
233	0xbf04b996	-0.5184568
234	0x3f0ed493	0.5579311
235	0x3d335f14	0.043791845
236	0x3ddf1290	0.108922124
237	0xbf069c89	-0.52582604
238	0xbe82f716	-0.25579137
239	0xbf18eca3	-0.5973608
240	0x3eb26fb7	0.34850857
241	0x3e9b9d12	0.30393273
242	0xbea7c345	-0.32766166
243	0x3e801c53	0.2502161
244	0xbe9df5df	-0.30851647
245	0x3e5e2b6c	0.21696252
246	0x3e8e0f92	0.27746254
247	0xbe8b3a0e	-0.2719273
248	0xbec752d1	-0.3893037
249	0xbe8f18f7	-0.27948734
250	0xbea2eaf4	-0.3181988
251	0xbf50e7bd	-0.81603605
252	0xbedda127	-0.43287012
253	0xbe167d2e	-0.1469619
254	0xbddf8ab4	-0.109151274
255	0xbeec1562	-0.46110064

fc3.bias f4 [2]
0	0x3e0453c1	0.12922575
1	0x3d1de3f8	0.038547486

exp_avg f4 [128, 24]
0	0x3bcb4c07	0.0062041315
1	0xba6daf43	-0.00090669486
2	0xbdae8b8e	-0.08522712
3	0x3a9f20f7	0.0012140562
4	0x3c71dd71	0.014762268
5	0xba9fb269	-0.0012183908
6	0xbdae8b8e	-0.08522712
7	0x3a9f20f7	0.0012140562
8	0x3c81f024	0.015861578
9	0xba49921a	-0.00076893123
10	0x3dd125e3	0.102123044
11	0x3abc33ac	0.0014358661
12	0x3c41d3df	0.011830299
13	0xbb3a8129	-0.0028458333
14	0x3dd125e3	0.102123044
15	0x3abc33ac	0.0014358661
16	0x3c52dedc	0.012870517
17	0xba217dfb	-0.0006160435
18	0xbc847b79	-0.016172158
19	0x3ac96088	0.0015363852
20	0x3c11e98e	0.008905781
21	0xbb944594	-0.004524896
22	0xbc847b79	-0.016172158
23	0x3ac96088	0.0015363852
24	0xbc5d51aa	-0.01350824
25	0xbbb95bd4	-0.0056566987
26	0xbda4911a	-0.080354884
27	0x3b21aafb	0.0024668563
28	0x3c63ba73	0.013899433
29	0x3c191617	0.009343646
30	0xbda4911a	-0.080354884
31	0x3b21aafb	0.0024668563
32	0xbbe67fae	-0.0070342636
33	0xbbb1ff01	-0.00543201
34	0x3d8e3cfa	0.06945224
35	0x3b1ee6ff	0.002424657
36	0x3c3f7552	0.011685686
37	0x3c0606d9	0.008180344
38	0x3d8e3cfa	0.06945224
39	0x3b1ee6ff	0.002424657
40	0xbc3bce94	-0.011462826
41	0xbba5d5a0	-0.0050608665
42	0xbcfe9ca0	-0.031080544
43	0x3b6f68e2	0.003653102
44	0x3c1a775d	0.0094278725
45	0x3bdc2da6	0.006719309
46	0xbcfe9ca0	-0.031080544
47	0x3b6f68e2	0.003653102
48	0x3b72fe21	0.0037077742
49	0x3acbbffc	0.0015544887
50	0x3d9eba93	0.0775043
51	0x386261a2	5.3973527e-05
52	0xbc3e4ab6	-0.011614492
53	0xb88b7bbc	-6.651084e-05
54	0x3d9eba93	0.0775043
55	0x386261a2	5.3973527e-05
56	0xbb559f70	-0.0032596253
57	0x3adc591f	0.0016811228
58	0xbd946aa1	-0.072469
59	0x3a8d4be4	0.0010780063
60	0xbc5b2e75	-0.013377775
61	0x3ab4d382	0.0013795944
62	0xbd946aa1	-0.072469
63	0x3a8d4be4	0.0010780063
64	0xbb5963c4	-0.0033171037
65	0x3b008b44	0.0019614259
66	0xbacb2790	-0.0015499461
67	0x3b2014a2	0.002442636
68	0xbc79d6cd	-0.015248966
69	0x3b370ca7	0.0027931125
70	0xbacb2790	-0.0015499461
71	0x3b2014a2	0.002442636
72	0x3c867dc2	0.016417388
73	0x3c84b7b7	0.016200883
74	0x3d997aa1	0.07494093
75	0xb9b730dd	-0.00034940886
76	0xbce7dd5f	-0.0283038
77	0xbd03e545	-0.03220107
78	0x3d997aa1	0.07494093
79	0xb9b730dd	-0.00034940886
80	0xbb84be93	-0.0040510385
81	0x3c8498bd	0.016186113
82	0xbe6433f2	-0.2228544
83	0xb8a5ff88	-7.9154095e-05
84	0xbca443f2	-0.02005193
85	0xbcebcdc0	-0.028784633
86	0xbe6433f2	-0.2228544
87	0xb8a5ff88	-7.9154095e-05
88	0x3cc0a464	0.023515888
89	0x3c84ef10	0.016227275
90	0x3e659680	0.22420692
91	0x3a03fcd3	0.0005034927
92	0xbc3e8324	-0.011627946
93	0xbcc97067	-0.02458973
94	0x3e659680	0.22420692
95	0x3a03fcd3	0.0005034927
96	0xbc80dd90	-0.01573065
97	0xbbc1aefc	-0.0059107523
98	0x3cc46983	0.023976093
99	0x3b49431d	0.0030710169
100	0x3c624ee0	0.013812751
101	0x3ca41029	0.020027237
102	0x3cc46983	0.023976093
103	0x3b49431d	0.0030710169
104	0x3ab568d0	0.0013840441
105	0xbbb9f902	-0.005675436
106	0x3e30cf46	0.17266569
107	0x3aec669a	0.0018035949
108	0x3c20964a	0.009801457
109	0x3c9c79bc	0.019101016
110	0x3e30cf46	0.17266569
111	0x3aec669a	0.0018035949
112	0xbc8587b1	-0.016300054
113	0xbbb7f76b	-0.0056142113
114	0xbe1e44e1	-0.15455963
115	0xb7c2751c	-2.3181135e-05
116	0x3bba0474	0.0056768004
117	0x3c91f0e6	0.017815065
118	0xbe1e44e1	-0.15455963
119	0xb7c2751c	-2.3181135e-05
120	0xbca87b0a	-0.020566482
121	0xbba2f227	-0.0049727145
122	0x3ca43cee	0.020048585
123	0x3a116d26	0.00055475754
124	0xbaa80dd8	-0.0012821509
125	0x3c7c7da1	0.015410812
126	0x3ca43cee	0.020048585
127	0x3a116d26	0.00055475754
128	0xbcc395ce	-0.023875143
129	0xbb9b3704	-0.004736783
130	0xbd113510	-0.035450995
131	0x3b0ef621	0.0021814185
132	0xbb4bbc3e	-0.0031087543
133	0x3c74c6f1	0.014940009
134	0xbd113510	-0.035450995
135	0x3b0ef621	0.0021814185
136	0xbcd8993d	-0.026440257
137	0xbb8b2348	-0.004246149
138	0xbcc2ad22	-0.023764197
139	0x3b960e0e	0.004579312
140	0xbba173a4	-0.0049271155
141	0x3c6897b5	0.014196326
142	0xbcc2ad22	-0.023764197
143	0x3b960e0e	0.004579312
144	0xba526bff	-0.0008026957
145	0xb8812880	-6.158743e-05
146	0x3c6a0c27	0.014285124
147	0xb8f7e355	-0.00011820222
148	0x3b4eda87	0.0031563358
149	0x3a0a4e0f	0.0005275914
150	0x3c6a0c27	0.014285124
151	0xb8f7e355	-0.00011820222
152	0xbb69b074	-0.0035658153
153	0xb8ad3c5c	-8.260526e-05
154	0xbcdbca8c	-0.02682998
155	0xb94f422d	-0.00019765711
156	0x3baa0b54	0.0051893387
157	0x3a82eaec	0.0009988225
158	0xbcdbca8c	-0.02682998
159	0xb94f422d	-0.00019765711
160	0xbb05dce7	-0.0020425858
161	0xb975215a	-0.00023377445
162	0x3c700f88	0.01465214
163	0xbac22817	-0.0014812973
164	0x3bed1c4a	0.0072360383
165	0x3abda878	0.0014469763
166	0x3c700f88	0.01465214
167	0xbac22817	-0.0014812973
168	0xbc8c3f5a	-0.017120052
169	0xbad7f07e	-0.001647487
170	0xbd487781	-0.048942093
171	0xbac8ab0a	-0.0015309763
172	0x3b999287	0.004686657
173	0x3b96f15f	0.0046064104
174	0xbd487781	-0.048942093
175	0xbac8ab0a	-0.0015309763
176	0xbc6e473e	-0.014543353
177	0xbafb2231	-0.001915997
178	0x3ce8a2af	0.028397886
179	0xbb30b13a	-0.0026961104
180	0x3c05d91d	0.00816944
181	0x3b708671	0.0036701227
182	0x3ce8a2af	0.028397886
183	0xbb30b13a	-0.0026961104
184	0xbc4a710a	-0.012356052
185	0xbb138368	-0.0022508744
186	0x3cbd1c46	0.02308477
187	0xbb4be7bd	-0.0031113469
188	0x3c432dc0	0.011912763
189	0x3b3ba31b	0.0028631154
190	0x3cbd1c46	0.02308477
191	0xbb4be7bd	-0.0031113469
192	0xbb30e2cb	-0.0026990648
193	0xba043997	-0.0005043982
194	0x3ce3bee4	0.027800985
195	0x395f4408	0.00021292281
196	0xb5077000	-5.04544e-07
197	0x3b508c6e	0.0031821984
198	0x3ce3bee4	0.027800985
199	0x395f4408	0.00021292281
200	0xbb760dc0	-0.0037544817
201	0xba0185ef	-0.0004940917
202	0xbc188c2b	-0.009310762
203	0x391ef3e6	0.00015158913
204	0x39804858	0.00024467963
205	0x3b58ee2a	0.0033100941
206	0xbc188c2b	-0.009310762
207	0x391ef3e6	0.00015158913
208	0xbb481e87	-0.0030535774
209	0xb9f0df3c	-0.0004594269
210	0x3c28dca9	0.010306516
211	0x396b2598	0.00022425351
212	0x3980ade4	0.0002454362
213	0x3b55bde6	0.003261441
214	0x3c28dca9	0.010306516
215	0x396b2598	0.00022425351
216	0x3ac6a943	0.0015156645
217	0x39f7f72a	0.00047295663
218	0x3d0bb970	0.034112394
219	0xb8f6aa28	-0.00011761888
220	0xba80051e	-0.000976715
221	0x3ab58ba4	0.001385082
222	0x3d0bb970	0.034112394
223	0xb8f6aa28	-0.00011761888
224	0x3946d0a8	0.00018960482
225	0x39da7f75	0.00041675163
226	0xbc18c22b	-0.009323637
227	0xba351b64	-0.00069086836
228	0xba90cc4b	-0.0011047212
229	0x3aeda824	0.0018131775
230	0xbc18c22b	-0.009323637
231	0xba351b64	-0.00069086836
232	0xba55e3d4	-0.0008159254
233	0x39ada978	0.00033123395
234	0xbc2b4b4d	-0.010454965
235	0xba7ce69b	-0.00096474
236	0xbaa37052	-0.0012469387
237	0x3b103ab2	0.0022007641
238	0xbc2b4b4d	-0.010454965
239	0xba7ce69b	-0.00096474
240	0x3b0614a5	0.0020459082
241	0x3aef5a31	0.0018261132
242	0xbc9731fc	-0.018456452
243	0xb58e9c3e	-1.0625297e-06
244	0xbb977477	-0.004622038
245	0xbb544dcf	-0.003239501
246	0xbc9731fc	-0.018456452
247	0xb58e9c3e	-1.0625297e-06
248	0x39f17fbc	0.00046062272
249	0x3aef57c6	0.0018260411
250	0xbcf26918	-0.029591128
251	0xb5224faa	-6.046563e-07
252	0xbb768387	-0.0037615017
253	0xbb7c4399	-0.003849244
254	0xbcf26918	-0.029591128
255	0xb5224faa	-6.046563e-07
